__________________________________________________________________________________________________
Layer (type)                    Output Shape         Param #     Connected to                     
==================================================================================================
cnn (InputLayer)                (None, 128, 1)       0                                            
__________________________________________________________________________________________________
conv1d_1 (Conv1D)               (None, 128, 32)      288         cnn[0][0]                        
__________________________________________________________________________________________________
input_1 (InputLayer)            (None, 128)          0                                            
__________________________________________________________________________________________________
max_pooling1d_1 (MaxPooling1D)  (None, 64, 32)       0           conv1d_1[0][0]                   
__________________________________________________________________________________________________
embedding_1 (Embedding)         (None, 128, 16)      4112        input_1[0][0]                    
__________________________________________________________________________________________________
flatten_1 (Flatten)             (None, 2048)         0           max_pooling1d_1[0][0]            
__________________________________________________________________________________________________
simple_rnn_1 (SimpleRNN)        (None, 128)          18560       embedding_1[0][0]                
__________________________________________________________________________________________________
dense_1 (Dense)                 (None, 32)           65568       flatten_1[0][0]                  
__________________________________________________________________________________________________
dense_2 (Dense)                 (None, 32)           4128        simple_rnn_1[0][0]               
__________________________________________________________________________________________________
concatenate_1 (Concatenate)     (None, 64)           0           dense_1[0][0]                    
                                                                 dense_2[0][0]                    
__________________________________________________________________________________________________
attention_probs (Dense)         (None, 64)           4160        concatenate_1[0][0]              
__________________________________________________________________________________________________
multiply_1 (Multiply)           (None, 64)           0           concatenate_1[0][0]              
                                                                 attention_probs[0][0]            
__________________________________________________________________________________________________
dense_3 (Dense)                 (None, 32)           2080        multiply_1[0][0]                 
__________________________________________________________________________________________________
cnn_rnn (Dense)                 (None, 17)           561         dense_3[0][0]                    
==================================================================================================
Total params: 99,457
Trainable params: 99,457
Non-trainable params: 0
__________________________________________________________________________________________________
None
Epoch 1/100

  128/13128 [..............................] - ETA: 1:02 - loss: 25.6053 - acc: 0.0703
…
